model_100_6.tflite (tflite, 13352 bytes, 6 tensors)

sequential_36/dense_110/BiasAdd/ReadVariableOp f4 [3]
0	0x3b90ff46	0.004424962
1	0xbc4ab069	-0.012371161
2	0x3c8b49d9	0.017002987

sequential_36/dense_109/BiasAdd/ReadVariableOp f4 [5]
0	0x3cb337b3	0.021877145
1	0x3c41e02d	0.011833233
2	0x3d3e19f4	0.04641147
3	0x3c32ddff	0.010917186
4	0xbc79818a	-0.015228638

sequential_36/dense_108/BiasAdd/ReadVariableOp f4 [20]
0	0xbcb947cc	-0.022617243
1	0x3c929edd	0.017898018
2	0xbccba752	-0.024860058
3	0xbd04b049	-0.03239468
4	0xbca5ff14	-0.020263232
5	0xbc93dc7f	-0.018049477
6	0x3c5d1d37	0.013495735
7	0xbc007468	-0.007840253
8	0xbb900aa2	-0.004395799
9	0xbce05cad	-0.027387941
10	0x3cae4e51	0.021277579
11	0xbcafe098	-0.0214694
12	0x3be8f0b2	0.0071087712
13	0x3c78889a	0.015169287
14	0x3d1958a6	0.037438057
15	0xba4b97c6	-0.00077664515
16	0xb8cfa21e	-9.900726e-05
17	0xbc2cecc4	-0.010554496
18	0xbc01da4e	-0.007925583
19	0x3d486b66	0.048930548

sequential_36/dense_108/Tensordot/MatMul1 f4 [20, 6]
0	0xbe3c5de1	-0.18395187
1	0xbda81147	-0.082064204
2	0x3c72505e	0.014789669
3	0xbce9212f	-0.028458206
4	0x3ecd0ff8	0.40051246
5	0xbe89bb4d	-0.26900712
6	0xbec30ded	-0.38096562
7	0x3ce21d9f	0.027602015
8	0x3e9ff570	0.3124194
9	0x3ef53fa9	0.4790013
10	0x3ed384fa	0.4131239
11	0x3e92c42c	0.28665292
12	0xbe95bcac	-0.29245508
13	0x3e873d72	0.26414067
14	0x3ed33f0a	0.41259032
15	0x3e9ebff0	0.31005812
16	0x3e035be2	0.1282802
17	0x3e61a94d	0.2203724
18	0x3dddf82f	0.10838353
19	0x3e35730e	0.17719671
20	0xbe2d49e0	-0.16922712
21	0xbe132765	-0.14370497
22	0x3d2f87e5	0.04285421
23	0xbd973388	-0.07382876
24	0xbe435f70	-0.19079375
25	0x3eac8025	0.33691517
26	0xbec83aed	-0.39107457
27	0xbe004676	-0.12526879
28	0x3e3546ca	0.17702785
29	0x3dafd7ad	0.08586059
30	0xbece1c9d	-0.40256205
31	0xbdd1e07b	-0.102478944
32	0xbe9b0bd8	-0.30282474
33	0xbec06dc2	-0.3758374
34	0xbe1c438c	-0.15260142
35	0x3d0aec83	0.03391696
36	0xbe459f5f	-0.19299076
37	0x3c4684e5	0.012116645
38	0xbe18e668	-0.14931643
39	0xbe87140b	-0.2638248
40	0xbde3c38d	-0.11121283
41	0x3eede53b	0.4646395
42	0x3ed7d6fd	0.4215621
43	0xbefd65a5	-0.4949161
44	0xbe9a0ff4	-0.30090296
45	0x3e2df969	0.16989674
46	0x3d762b0a	0.06009964
47	0x3ebd17c8	0.36932206
48	0x3e98f961	0.2987776
49	0x3eb2b4b0	0.3490348
50	0x3ec0004d	0.3750023
51	0x3c93872e	0.018008795
52	0x3e138106	0.14404687
53	0x3df10b04	0.11769679
54	0xbe86c203	-0.26319894
55	0xbe132178	-0.14368236
56	0xbed06e2b	-0.4070905
57	0xbe666a7d	-0.2250156
58	0x3c4d0897	0.012514255
59	0xbedf43ab	-0.43606314
60	0x390eef77	0.00013631383
61	0xbdaa2a4c	-0.08308849
62	0x3dbae82f	0.09126317
63	0x3dbf7405	0.09348301
64	0xbdc9563a	-0.098308995
65	0xbe9c1a73	-0.3048893
66	0xbd8bf1f6	-0.0683326
67	0xbebec5c2	-0.37260252
68	0x3ee5bef6	0.44872254
69	0xbe02a96c	-0.12759942
70	0xbea44aa0	-0.32088184
71	0x3ee33faf	0.44384524
72	0x3eb7b448	0.3587973
73	0x3e547d2b	0.20750873
74	0xbead2f56	-0.33825177
75	0xbe863532	-0.2621246
76	0xbdd40208	-0.1035195
77	0xbdf381e5	-0.1189001
78	0x3e78c3ed	0.2429349
79	0xbee9a5ec	-0.456344
80	0xbecf5974	-0.40497935
81	0xbea36f34	-0.3192078
82	0xbe937bbe	-0.28805345
83	0xbde40604	-0.1113396
84	0xbdf31256	-0.11868732
85	0xbe7046eb	-0.23464553
86	0xbde091f9	-0.10965342
87	0x3e1a9b60	0.15098333
88	0x3d03ecec	0.03220837
89	0xbedc0686	-0.42973727
90	0x3ec57883	0.38568506
91	0x3dcc6b1a	0.099813655
92	0xbefbbfa6	-0.49169654
93	0x3ef34fee	0.4752192
94	0xbe49c9a8	-0.19705832
95	0x3e192f75	0.1495951
96	0x3e4d125e	0.20026538
97	0xbedd6bc1	-0.43246272
98	0x3e665711	0.2249415
99	0x3e5d6e8c	0.21624202
100	0x3e2e8971	0.17044617
101	0xbe976983	-0.29572687
102	0x3e592b70	0.21207976
103	0x3ec0bfcf	0.37646338
104	0x3ec14661	0.37749007
105	0xbe5b9d3b	-0.21446697
106	0x3eb26171	0.34839967
107	0x3e5b3018	0.21405065
108	0xbe2bdb17	-0.16782795
109	0x3de44747	0.111464076
110	0xbe170857	-0.14749275
111	0xbee813cf	-0.45327613
112	0xbe16298b	-0.14664285
113	0xbe43a3b1	-0.19105412
114	0x3e6c26c9	0.2306167
115	0xbde52a04	-0.111896545
116	0x3d43f467	0.047840502
117	0x3f02dbbf	0.51116556
118	0x3dde84ca	0.10865171
119	0xbe0697f2	-0.131439

sequential_36/dense_109/Tensordot/MatMul f4 [5, 20]
0	0x3ee91b05	0.45528427
1	0x3e4dceea	0.20098463
2	0xbec4a5cb	-0.3840774
3	0xbe20ad62	-0.1569114
4	0x3ecaba23	0.39595136
5	0x3eb90249	0.36134556
6	0xbe2164f5	-0.15761168
7	0x3e9f574f	0.311213
8	0xbe502dc5	-0.2032996
9	0xbe62fc8a	-0.22166649
10	0xbecd9459	-0.40152243
11	0x3f02145b	0.5081231
12	0x3d1fdf96	0.039031588
13	0xbef998d2	-0.48749405
14	0x3e35cbdb	0.17753546
15	0xbb2c1e7b	-0.0026263285
16	0xbedd3149	-0.43201664
17	0xbe658e92	-0.22417668
18	0xbedcdde6	-0.43138045
19	0xbe75ae23	-0.23992209
20	0x3d008d06	0.03138449
21	0xbdcacff5	-0.09902946
22	0xbee70dd6	-0.45127743
23	0xbdaaf252	-0.08347
24	0x3ea89913	0.32929286
25	0xbe6cce8c	-0.23125666
26	0xbc8befe8	-0.01708217
27	0x3e5fa72b	0.21841113
28	0x3eb8bee0	0.36083126
29	0xbe9cafaf	-0.30602786
30	0xbd4d8cd6	-0.05018314
31	0xbe5f24dc	-0.21791404
32	0xbe66ec1d	-0.22551008
33	0xbee8f98e	-0.45502895
34	0x3e8289a3	0.25495633
35	0x3ea060b6	0.31323785
36	0x3c4c3bb9	0.012465411
37	0x3e757e56	0.23973975
38	0xbe00a4c2	-0.1256285
39	0x3ea9548f	0.33072326
40	0x3b8b26ba	0.00424656
41	0xbe5200be	-0.20508096
42	0xbea7153c	-0.32633388
43	0xbdf6c6aa	-0.12049611
44	0x3e58720e	0.21137258
45	0xbe17aee5	-0.1481281
46	0x3efcf082	0.49402243
47	0x3e8a4160	0.27003002
48	0xbed2b031	-0.41150048
49	0xbe779d18	-0.2418102
50	0x3d4e32d6	0.05034145
51	0xbedbfa30	-0.42964315
52	0x3e727abe	0.23679635
53	0x3eba2ec7	0.36363813
54	0xbee55c9f	-0.44797227
55	0xbde8a27e	-0.11359118
56	0xbea7be53	-0.32762393
57	0x3efad65b	0.48991665
58	0xbe2ba6e6	-0.16762885
59	0x3ec51e53	0.38499698
60	0x3e88dc46	0.26730555
61	0x3e912df8	0.28355384
62	0x3e9f8380	0.31155014
63	0x3e909a02	0.282425
64	0xbe77bfad	-0.24194212
65	0xbe27a7ce	-0.16372606
66	0x3ee15cf0	0.44016218
67	0xbedfebd4	-0.4373461
68	0xbdaf0dd4	-0.085475594
69	0x3e806f56	0.25084943
70	0xbef575fe	-0.47941583
71	0xbd9a94cc	-0.07547912
72	0x3e40c0de	0.18823573
73	0xbe758e03	-0.23979954
74	0x3bc388c7	0.005967233
75	0x3ea57219	0.32313612
76	0xbe53687c	-0.20645326
77	0xbea33ea2	-0.31883723
78	0x3ebc47da	0.36773568
79	0xbebd27f1	-0.36944535
80	0x3d43c0cc	0.047791287
81	0xbef6c7ee	-0.4819941
82	0x3c309ac2	0.010779085
83	0xbdc350f8	-0.09536928
84	0x3eb88f98	0.36047053
85	0x3cdf8019	0.027282761
86	0x3e8cd4c3	0.27506074
87	0x3ef11f22	0.47094065
88	0xbeefe8fb	-0.46857437
89	0x3e45f720	0.19332552
90	0xbdd8a9cd	-0.10579262
91	0x3eeaffc2	0.45898253
92	0x3ee60955	0.44928995
93	0xbc33f70c	-0.0109841935
94	0xbd86b73b	-0.06577917
95	0x3dd11494	0.10209003
96	0xbcdbf1f6	-0.026848774
97	0x3ec6d5cc	0.3883499
98	0xbe5f3a54	-0.21799594
99	0x3c46cbd1	0.012133555

sequential_36/dense_110/MatMul f4 [3, 500]
0	0x3d73b743	0.059500944
1	0x3db40e21	0.087917574
2	0x3d8071c6	0.062717006
3	0xbda2b070	-0.07943809
4	0xbda1ea06	-0.079059646
5	0x3cd70a14	0.026249923
6	0xbcb3be52	-0.021941338
7	0x3d5fda89	0.05465177
8	0x3a007407	0.0004900102
9	0x3d743170	0.05961746
10	0xbd6c384a	-0.05767087
11	0xbd4b642c	-0.04965608
12	0x3d93faa2	0.07225539
13	0xbd587124	-0.052842274
14	0x3bc89b8b	0.006122058
15	0xbb6771b3	-0.0035315573
16	0x39f03726	0.00045817456
17	0x3aae058c	0.00132768
18	0xbc874744	-0.016513474
19	0x3d6aa719	0.057288263
20	0xbced8a30	-0.028996557
21	0x3d438ca9	0.047741566
22	0x3dc0cd7d	0.09414194
23	0x3c98d282	0.018655065
24	0xbd12d8d2	-0.035851307
25	0x3dcef5e0	0.10105491
26	0xbcdbd874	-0.026836611
27	0x3e0dd7af	0.13851808
28	0xbda7b828	-0.08189422
29	0x3de19eae	0.11016594
30	0xbd9fb089	-0.07797343
31	0xbd26c9ed	-0.040719915
32	0x3daeb4d0	0.08530581
33	0xbda3fe8f	-0.080075376
34	0xbcf17c6a	-0.02947827
35	0x3d3dddcb	0.046354096
36	0xbd84c1a8	-0.064822495
37	0x3d877129	0.066133805
38	0xbc5e9d11	-0.013587252
39	0xbbd3ca02	-0.00646329
40	0x3cf9c501	0.030489447
41	0x3d4dff40	0.050292253
42	0x3deed488	0.11661631
43	0xbd3eff06	-0.046629928
44	0x3da1e120	0.07904267
45	0xbd641663	-0.055685412
46	0xb9b7b0cd	-0.00035036207
47	0x3cc7d5c4	0.024393924
48	0x3d746b0f	0.05967241
49	0xbd3c0e6b	-0.045912188
50	0x3d5287b9	0.051398966
51	0xbdab2fce	-0.083587274
52	0x3d2f6da8	0.042829186
53	0xbcfdb115	-0.030968228
54	0x3db804df	0.08985304
55	0xbc8a0560	-0.016848266
56	0x3dbbd3b0	0.091712356
57	0x3da0989e	0.078416094
58	0xbce8b72b	-0.028407654
59	0x3da54921	0.08070589
60	0x3d7534f2	0.059864946
61	0xbd8603e8	-0.06543714
62	0xbd07c563	-0.033147227
63	0xbd66e33a	-0.056369044
64	0x3bb5a718	0.005543601
65	0xbc820a62	-0.015874092
66	0x3d76661f	0.060155984
67	0x3dfffe67	0.12499695
68	0x3db8b2fe	0.09018515
69	0x3dd35c3f	0.10320329
70	0xbd6db270	-0.0580315
71	0xbc03fc92	-0.008055823
72	0xbd840dcb	-0.06447943
73	0x3cf6fe38	0.030150518
74	0xbcf17f76	-0.029479723
75	0xbc0f8ac4	-0.008761112
76	0x3dc11f35	0.094297804
77	0xbd600372	-0.054690786
78	0x3d9b1759	0.075728126
79	0x3dcd970c	0.100385755
80	0xbdb89f89	-0.09014804
81	0xbd9e9df4	-0.07744971
82	0x3e0f2c04	0.13981634
83	0xbdc50b66	-0.09621315
84	0x3b3f885f	0.002922557
85	0x3c9d09c9	0.019169705
86	0xbd3d79ae	-0.04625862
87	0x3d5ef0b1	0.05442876
88	0xbbc50e6e	-0.006013683
89	0x3cc8d9cf	0.024517922
90	0xbd0860c1	-0.033295397
91	0xbd683f3c	-0.05670093
92	0x3d7ce23f	0.061739203
93	0xbccaf78d	-0.024776245
94	0xbd7f4961	-0.06232584
95	0xbc9c5cb1	-0.019087167
96	0x3d988374	0.07446948
97	0x3e1ac647	0.151147
98	0x3db968bd	0.0905318
99	0xbd2974e7	-0.041371252
100	0x3dc2f59f	0.09519505
101	0xbc3d288c	-0.011545312
102	0x3e13dfa7	0.14440785
103	0xbc9736b1	-0.018458696
104	0x3d8e3fe5	0.06945781
105	0x3ce793df	0.028268753
106	0x3e122a8d	0.14274044
107	0xbd802b2b	-0.06258234
108	0x3d419f92	0.04727132
109	0x3c9ca4e3	0.019121593
110	0xbd7ea646	-0.06217029
111	0xbc2a639f	-0.010399728
112	0x3c82576a	0.015910823
113	0xbd345a30	-0.044031322
114	0xbdb6667e	-0.089062676
115	0xbd60f7b4	-0.054923728
116	0x3cadf8b4	0.021236755
117	0x3de7164d	0.112835504
118	0xbbf805fc	-0.007569073
119	0x3d1197bb	0.035545092
120	0xbccf0f23	-0.025275772
121	0x3d44db7e	0.048060887
122	0xbd63b18d	-0.055589247
123	0xbdb90f38	-0.09036106
124	0xbc1a7a24	-0.009428535
125	0xbc80f45e	-0.015741523
126	0xbd5e7a2e	-0.05431574
127	0x3d03374e	0.032035165
128	0xbc9a7adb	-0.01885741
129	0x3dd7985b	0.105271064
130	0xbdb393d1	-0.08768428
131	0x3d757c1a	0.059932806
132	0xbd51ff94	-0.05126913
133	0xbde4e5f8	-0.111766756
134	0x3cb234e8	0.021753743
135	0x3dea29d1	0.11433757
136	0xbbb0e5fb	-0.0053985096
137	0xbd38dc69	-0.045132075
138	0xbd4fa9b8	-0.050698966
139	0x3d8b67a9	0.06806881
140	0x3dc8533f	0.09781503
141	0xbd2bd027	-0.041946556
142	0x3d753395	0.059863646
143	0x3d35edb5	0.04441615
144	0xbda11c0a	-0.07866676
145	0x3d76aba9	0.0602223
146	0xba261f1d	-0.00063370337
147	0xbc6179ca	-0.013761947
148	0xbdde27c3	-0.10847428
149	0x3c093f6c	0.008376937
150	0xbd710763	-0.058844935
151	0x3dd5419a	0.10412903
152	0x3d113e75	0.035459954
153	0x3ce531a2	0.027977768
154	0x3dc8f5a7	0.098124795
155	0x3c686ab3	0.014185595
156	0x3c034ef4	0.008014429
157	0x3dd33ee7	0.10314732
158	0xbcb3011d	-0.021851117
159	0xbd8e9f96	-0.06964032
160	0xbd4f18ae	-0.050560646
161	0x3c845cab	0.016157469
162	0xbbfdbb50	-0.0077432767
163	0x3d83f624	0.06443432
164	0xbbd97b5b	-0.0066370196
165	0xbdb900ab	-0.090333305
166	0x3c98fdb9	0.018675672
167	0x3dde4999	0.108538814
168	0x3d9665f1	0.073436625
169	0xbdac4737	-0.08412021
170	0x3dab9fde	0.083801016
171	0xbc4bca7e	-0.012438415
172	0x3d10d8f8	0.035363168
173	0x3ce3d41a	0.027811099
174	0xbdc0f9c0	-0.09422636
175	0xbcc65331	-0.02420959
176	0x3dd52c67	0.1040886
177	0x3d1d7d99	0.038449857
178	0xbc3dc080	-0.01158154
179	0xbdbe51be	-0.09292935
180	0xbd87e578	-0.066355646
181	0xbcf2d138	-0.029640779
182	0x3d02de7a	0.03195045
183	0xbd9c6525	-0.07636479
184	0xbcc4af81	-0.024009468
185	0x3db11595	0.086466946
186	0x3c106f06	0.008815533
187	0xbcd7843b	-0.02630817
188	0xbe028ade	-0.12748286
189	0x3d33fcdd	0.04394232
190	0x3cd397ea	0.025829274
191	0x3d8aa91c	0.06770536
192	0x3d503c87	0.050838973
193	0xbdb14df1	-0.08657444
194	0xbd2ca9c8	-0.042154104
195	0xbc1462b8	-0.0090567395
196	0x3da51aa6	0.080617234
197	0x3d233a28	0.039850384
198	0x3daa3e84	0.08312705
199	0xbaadff57	-0.001327495
200	0xbd46113e	-0.048356287
201	0x3dc988ef	0.09840571
202	0xbd015352	-0.0315736
203	0x3dad11bf	0.084506504
204	0x3dbb3714	0.09141365
205	0xbcdd33bb	-0.027002206
206	0x3c7e5feb	0.015525798
207	0x3d49b0f0	0.049241006
208	0xbde7bdbf	-0.11315488
209	0x3c3f314e	0.01166947
210	0x3c5d111d	0.01349285
211	0xbd5600f5	-0.052247006
212	0xbdecf5b3	-0.11570301
213	0x3cb5ef52	0.022208843
214	0xbd892e88	-0.06698328
215	0x3db05654	0.08610216
216	0xbd9d4037	-0.07678264
217	0xbd2f80c9	-0.04284743
218	0xbdc2222d	-0.09479175
219	0x3c224851	0.009904937
220	0x3bf209b8	0.0073864125
221	0x3dd7e5f1	0.10541905
222	0x3d21ee7a	0.03953407
223	0x3d91a071	0.0711068
224	0x3b9bc345	0.0047535026
225	0x3d95fccb	0.07323607
226	0x3de2e7f2	0.11079396
227	0xbdbfbaa6	-0.09361772
228	0xbcade875	-0.021229008
229	0x3aa6b15d	0.0012717653
230	0xbd47c03b	-0.04876731
231	0x3d8d6ff5	0.0690612
232	0xbdb77a31	-0.08958853
233	0xbdf5a2c2	-0.11993934
234	0xbc0c2b72	-0.00855528
235	0xbb7763b8	-0.0037748646
236	0x3dbbd724	0.09171894
237	0xbd74c904	-0.059762016
238	0x3b988d93	0.004655549
239	0xbd88cc8a	-0.06679638
240	0x3d549f87	0.05190995
241	0xbd70d31b	-0.058795076
242	0xbd162ee8	-0.036665827
243	0xbcae5b11	-0.021283658
244	0x3d66c371	0.05633873
245	0xbc976cae	-0.01848444
246	0xbd99875f	-0.07496523
247	0x3d802418	0.06256884
248	0x3d9b4f48	0.07583481
249	0xbccc3576	-0.024927836
250	0x3d65962a	0.05605141
251	0x3c3dda73	0.011587727
252	0x3ca62cf0	0.0202851
253	0x3dca72c0	0.09885168
254	0xbc2c58ea	-0.010519246
255	0x3c9d4643	0.019198542
