model_100_6_old.tflite (tflite, 9248 bytes, 5 tensors)

sequential_9/dense_25/BiasAdd/ReadVariableOp f4 [5]
000000 13 4b 3a 3d e0 be 42 3d 8d 18 38 3d 8a ec 87 3c
       0.045481753 0.047545314 0.04494529 0.016592283
000010 50 c2 61 3b
       0.0034448095

sequential_9/dense_24/BiasAdd/ReadVariableOp f4 [20]
000000 1b c9 3e 3d 33 a1 1d bc 45 a8 57 3c 74 a0 02 3c
       0.046578508 -0.009620952 0.013162677 0.007972825
000010 d5 a6 23 bc 9c d4 98 bc 34 c3 2f bc 4b 27 16 bd
       -0.009988506 -0.018656068 -0.010727692 -0.036658566
000020 99 da c2 3b 86 de dd bc 02 d7 c0 bc c0 8d 3d 3d
       0.005946469 -0.027083647 -0.023540024 0.04627776
000030 c5 f8 cf bc aa b6 55 bb 71 8c 84 3c 00 a3 39 3c
       -0.025387177 -0.0032610097 0.016180249 0.011330366
000040 b1 f8 47 bc 9b 15 03 bd 98 c1 37 3d 9d ec d7 ba
       -0.012205289 -0.032003026 0.04486236 -0.0016473714

sequential_9/dense_24/Tensordot/MatMul1 f4 [20, 6]
000000 71 e4 a3 be 02 15 3f 3e 36 07 ef be 43 b7 cd bd
       -0.32010224 0.18660358 -0.4668519 -0.1004472
000010 35 19 87 3e 10 b4 f0 be 3a 70 aa 3c ee 2f d3 be
       0.2638642 -0.47012377 0.020805467 -0.41247505
000020 a8 e6 28 bd 6b 8b 2f be a1 bd 95 3d fe 35 f0 3d
       -0.041235596 -0.17143027 0.073115595 0.11729048
000030 81 7c d4 be 83 c9 b5 be 40 21 59 bc 64 04 bf be
       -0.4150124 -0.35505304 -0.013252556 -0.37308037
000040 16 4b 8e 3e 4d 4b ca 3e 0a ea c2 3d 07 fa 2b be
       0.2779166 0.39510575 0.09517296 -0.16794597
000050 6b af f1 3d d2 a8 e5 be cc d7 0e 3e ed c3 e2 be
       0.118010364 -0.44855362 0.13949507 -0.44290105
000060 3b 89 90 be 8b 15 f3 3e c3 98 c4 be e0 fc 21 3c
       -0.282297 0.47477373 -0.38397798 0.00988695
000070 ec 57 cc 3c 48 11 8b 3e 13 90 ed be 01 ca cc 3e
       0.024944268 0.27161622 -0.46398982 0.39997867
000080 11 18 0f 3e a7 b3 7c be 2f 20 93 3e 34 c3 b4 be
       0.13974024 -0.24677907 0.28735492 -0.35305178
000090 a6 30 b2 be 86 84 14 be 55 b7 d8 3e 86 f9 d8 3e
       -0.3480274 -0.14503679 0.4232737 0.4237787
0000a0 ea 8e 92 3d f5 0f 76 3e 62 ed ea bc 25 af c3 be
       0.07156165 0.24029525 -0.028677646 -0.38219562
0000b0 13 7e df be 50 28 55 3e 4d 12 c4 3e 8d 8a dd 3e
       -0.43650874 0.20816159 0.38295212 0.43269768
0000c0 18 f5 6f bd 5f a4 81 be 37 c9 00 bc 72 97 ef be
       -0.05858335 -0.25320718 -0.007860473 -0.4679523
0000d0 9a 85 a6 bd b9 a3 a9 be 17 56 bd 3e 01 ed 1e 3e
       -0.08130951 -0.33132723 0.36979744 0.15520097
0000e0 7f 3c 14 be 96 73 8e be a3 85 7d be b1 fa e4 be
       -0.14476202 -0.2782256 -0.2475801 -0.44722512
0000f0 ab 88 06 be 59 61 d3 be d3 3c c1 3e ca c3 23 3e
       -0.13138072 -0.41285208 0.37741718 0.15992656
000100 2a f5 d8 be ad 51 ad 3d 37 be d5 3e 05 54 03 bf
       -0.42374545 0.08462844 0.41746685 -0.5130008
000110 80 96 ec bc 09 7d c6 3e 01 f9 b3 3e 90 09 5f be
       -0.028880358 0.3876727 0.35150912 -0.21780992
000120 e2 62 97 be 92 8d 09 3d 15 86 b4 3e c8 89 22 be
       -0.2956763 0.033582278 0.35258546 -0.15872872
000130 91 77 83 be 45 2f 8a be 21 de 49 3e fc bf 46 be
       -0.2567716 -0.2698919 0.19713642 -0.19409174
000140 b5 cd 13 3e 40 e8 9e bc 8e 9f ed be 26 cc cf 3e
       0.1443394 -0.019397855 -0.46410793 0.4058544
000150 03 b7 9f 3c 11 0b 2e be ba 27 1b be 98 34 ff bd
       0.019496446 -0.16996409 -0.15151873 -0.12461203
000160 e5 9a c4 be 68 d0 b3 3d 5f d0 90 3e f0 68 d1 3e
       -0.38399425 0.08779985 0.28283975 0.40900373
000170 d4 79 75 3e 5f e8 e6 3e ba df 34 be ee 35 82 3e
       0.23972255 0.4509916 -0.1766347 0.2543177
000180 92 46 b4 3e ed a4 ba be 17 06 fe 3c 44 6d a3 be
       0.3521009 -0.36453953 0.031008763 -0.319193
000190 d3 98 e2 be 25 b2 88 be 93 93 e1 be 46 b8 71 be
       -0.4425722 -0.26698413 -0.44057903 -0.23605451
0001a0 cb b7 99 3e 10 af e3 3c 52 60 01 bf d4 e9 87 be
       0.30023035 0.027793437 -0.505376 -0.26545584
0001b0 af c7 6e bd 6c 24 ff bd 78 a9 66 3d 7a e4 55 3e
       -0.058295902 -0.12458119 0.05631396 0.20887938
0001c0 44 25 dc 3e 0a 0b d8 be f1 12 b1 3b 4f 00 af 3e
       0.4299718 -0.42195922 0.0054038693 0.34179923
0001d0 d2 63 f0 bc b4 02 d3 bd 63 20 41 be 7e 07 98 3d
       -0.029344473 -0.1030325 -0.18860011 0.07423304

sequential_9/dense_25/Tensordot/MatMul f4 [5, 20]
000000 9b d8 c9 3e be 10 6e be 71 a4 64 3e 33 e5 be 3e
       0.3942307 -0.23248574 0.22328354 0.3728424
000010 da db 29 be c5 d0 c0 be 38 8b c1 be 70 fe a8 3c
       -0.16587773 -0.3765928 -0.37801528 0.020629138
000020 2a 8e e4 3e 5a d2 19 3e af 90 a4 3c 3c c5 96 3e
       0.44639713 0.15021649 0.020088522 0.29447353
000030 11 58 d7 bd a8 b1 b9 3e c8 81 58 3e 44 aa 33 be
       -0.10514844 0.36268353 0.21143258 -0.1754542
000040 1a a2 cd ba 72 08 e7 3e e5 77 69 be ff 55 d2 be
       -0.0015688569 0.4512363 -0.22799642 -0.41081235
000050 fe 48 ca 3e a0 9c 18 3e ce 2c 86 be c0 08 b7 bc
       0.39508814 0.14903498 -0.26206058 -0.02234304
000060 d2 09 a6 be ec 7a aa bd a5 6d c7 be 4b ce 1a 3e
       -0.32429367 -0.08324227 -0.3895084 0.15117757
000070 89 b6 a1 3e 85 7a cd be d5 48 b3 be 43 5d 04 3f
       0.31584576 -0.40132537 -0.35016504 0.51704806
000080 ce ab 7d 3e fc 0c c6 bd 17 78 35 3e e2 41 2c 3e
       0.2477257 -0.09670445 0.17721592 0.16822007
000090 48 c5 a1 3e cd ec 8c 3e 08 c5 af 3e 2b 03 c0 be
       0.31595826 0.27524415 0.3433001 -0.37502417
0000a0 8d c1 d1 3d 99 24 74 be af df a8 3b f1 75 c8 3e
       0.10241995 -0.23842086 0.0051536183 0.39152482
0000b0 ff 23 7f 3e 97 dd a9 be d0 12 93 3e 25 17 44 be
       0.24916075 -0.33176872 0.2872529 -0.19149454
0000c0 c8 25 b3 be 8e 7c c4 be 92 ca d8 bd 20 37 8c 3e
       -0.34989762 -0.38376278 -0.10585512 0.27385807
0000d0 75 a3 09 be c8 46 c9 be a8 8a 92 be 85 01 2f 3e
       -0.1344126 -0.39311814 -0.2862141 0.17090423
0000e0 e3 ee fd 3e 16 fb c5 be 24 b2 da 3e 78 4f b0 3e
       0.4959632 -0.38668126 0.42714036 0.3443563
0000f0 4f f3 af be c0 28 04 3e 3c 43 b4 3e 2e 63 c9 be
       -0.34365317 0.1290617 0.35207546 -0.3933348
000100 be 3f 92 be 1c 1a a9 be b4 35 5d be e4 87 f3 bc
       -0.28564256 -0.33027732 -0.21602517 -0.029727884
000110 93 ae cc be ba 70 f3 be 45 da 8a bd 03 b1 05 bd
       -0.3997694 -0.4754694 -0.06779913 -0.032639515
000120 29 5a 9b 3e d5 71 11 be 3f 4b 63 bd 31 d1 df bd
       0.30342224 -0.1420358 -0.055491682 -0.10928572
000130 2f 1f 35 3d d4 41 c7 3d c5 25 a4 3d 51 de a7 be
       0.044219192 0.097293526 0.080150165 -0.327868
000140 2d 09 98 3e 08 59 19 3e 3d de dc 3e e5 e0 cf be
       0.296945 0.14975369 0.43138304 -0.40601268
000150 44 f6 e6 be 24 93 0e 3e 40 75 b2 be b1 5b e9 3c
       -0.4510976 0.13923317 -0.3485508 0.028486105
000160 68 9c b7 be ca 2e 7d be e4 4d b9 be ed 6a 5c 3e
       -0.35861516 -0.2472488 -0.36192238 0.21525164
000170 48 8b 7d bd ff a2 92 3e 4a 05 94 3e f7 2a a1 3e
       -0.061900407 0.2863998 0.28910285 0.31478092
000180 88 67 c4 be 99 46 eb bd fd e0 76 3e 30 2b ee 3e
       -0.38360238 -0.11488075 0.24109264 0.46517324

sequential_9/dense_26/MatMul f4 [1, 500]
000000 1e aa f4 bc e5 61 1e bd 1d 6b 29 3c da 1a b2 3c
       -0.029866274 -0.03866758 0.010340479 0.02174132
000010 c7 48 79 bb 48 d3 19 3b d9 52 cc 3b b7 1e 5e bc
       -0.0038037763 0.002347188 0.006235462 -0.013557128
000020 70 fb ac 3d 76 17 cf 3d 92 ec b4 bc a1 dc ef 3b
       0.084463954 0.10111897 -0.022085462 0.007320002
000030 2f 7b bc bb 57 fb 9a 3c 8c 3d cd 3c 1e 84 9d 3d
       -0.0057519893 0.018918676 0.025053762 0.07691215
000040 48 b5 1d bd b8 e5 83 3d 06 7f a6 bd 80 fe c6 3c
       -0.03850296 0.064403 -0.081296965 0.024291277
000050 36 3c a9 bc 5f df 3e bc 16 ca 0f bd db 81 64 3d
       -0.020658594 -0.0116499355 -0.035104834 0.055787902
000060 48 f6 e9 3d c9 19 58 3b c0 90 bd bd 47 5d 90 bd
       0.114239275 0.0032974354 -0.092561245 -0.07049041
000070 4f 6c cc 3d ac ca bd 3c 49 3e 36 3d ce 5f ec bd
       0.09981596 0.02316793 0.044492994 -0.11541711
000080 c2 86 4e 3d 94 32 f9 3d e4 e4 1d bd 50 d6 99 3d
       0.050421484 0.1216785 -0.038548365 0.0751158
000090 ea 7e 01 3d 07 95 50 3c 41 15 7b 3d 14 fa 02 3d
       0.031615175 0.012730843 0.061299566 0.031976774
0000a0 70 a5 34 bd d7 90 86 3d b6 9d 61 3d 72 fd d2 3d
       -0.044103086 0.06570595 0.055082045 0.10302247
0000b0 d0 71 38 bd 9c 14 57 bd 00 4a 2b bd d5 e5 1f bc
       -0.045030415 -0.05250989 -0.04181862 -0.009759386
0000c0 d3 63 ef 3d a3 ae a5 bd d8 ad df bd d6 c2 9f bd
       0.11688962 -0.0808995 -0.1092183 -0.07800834
0000d0 f5 79 b7 bd d8 55 62 3c 74 ad 5e bd 27 be 99 bd
       -0.08958808 0.013814412 -0.054364637 -0.07506972
0000e0 c0 d2 ca bc 6e 7d 1e bd fe 01 68 bd b5 44 ee bc
       -0.024758697 -0.038693838 -0.056642525 -0.029085496
0000f0 a8 f7 fb bb ba 45 34 bd aa a2 5f 3d 2e 38 d8 bd
       -0.007689435 -0.04401181 0.054598488 -0.105575904
000100 df 60 d7 3d c6 eb 19 bb be 4d 86 bd e3 0e 45 bd
       0.105165236 -0.002348648 -0.06557797 -0.0481099
000110 71 c4 7c 3a 2c 75 ce 3d 30 a8 90 bd 29 cc b5 3d
       0.0009642309 0.100809425 -0.07063329 0.08876831
000120 9a 06 0d bd 34 b5 60 bd 4b d6 ea 3c de 58 8e bd
       -0.034430124 -0.05486031 0.028666636 -0.06950544
000130 e9 01 9a 3d 12 38 a6 bd a7 7b a3 3d d9 d1 13 bd
       0.075198956 -0.08116163 0.07982569 -0.0360888
000140 09 1b b1 bd aa 87 2c 3d 3e af 6a 3d 2c 5e 29 bd
       -0.08647735 0.042121567 0.05729603 -0.041349575
000150 91 ab fc 3d 9f e5 53 3c 40 6f 4a 3b 05 c3 e8 3c
       0.12337411 0.012933164 0.0030889064 0.028413305
000160 30 5a eb bc b5 8c ab bd a4 54 cb 3b d8 8e 51 bc
       -0.028729528 -0.08376447 0.0062051583 -0.012790404
000170 b8 3a 80 3d d6 b5 46 3d 28 33 71 bd 86 ff b7 bd
       0.062612 0.048513256 -0.058886677 -0.08984284
000180 6a 7f 2c bd f0 5b f5 bd 50 7e 46 bd 08 e4 b0 bc
       -0.0421137 -0.11980426 -0.048460305 -0.021593109
000190 17 2a 03 be ff 35 f8 3b 5e cc ab bd 05 7b fb 3d
       -0.12809025 0.007574796 -0.08388589 0.122793235
0001a0 81 93 ff 3c dc 4d a3 bc a0 f9 1e 3d 4f 82 87 bd
       0.031198265 -0.019934587 0.03881228 -0.06616651
0001b0 39 f9 cc 3d 49 b4 78 3c 1e a4 b6 bd 04 92 73 bb
       0.10008473 0.015179702 -0.089180216 -0.003716589
0001c0 1a 55 ac 3c a3 b5 0e 3d 18 79 bb 3d d0 f2 46 bd
       0.021036673 0.03484119 0.09153956 -0.048571408
0001d0 3a d1 6b bd 3a 1f fe bd 2f a6 ef 3d 68 02 14 3d
       -0.05757258 -0.124083 0.11701619 0.036135107
0001e0 53 9f 6e 3d d4 17 ac bd 5f 5e 0a be d0 04 8b bc
       0.058257412 -0.08402982 -0.13512562 -0.016970068
0001f0 e9 04 82 3b 6f c8 9d bc 63 74 86 3d 4d 80 cd bd
       0.0039678705 -0.019260613 0.06565168 -0.10034237
000200 5a 07 84 bd 38 7e 79 bd e4 6a 57 3d 8f b8 35 bd
       -0.06446715 -0.060911387 0.052592173 -0.044365462
000210 59 84 f9 bd 30 71 9e 3d af 00 6c 3d 0e 3e 22 3d
       -0.121834464 0.077364326 0.05761784 0.03960996
000220 67 de 50 3d ad 6e 13 be 92 81 e6 3d 12 6b 4f 3d
       0.05099335 -0.14397688 0.11255182 0.05063922
000230 67 e0 92 bd c0 8b fc 3c 22 e8 cb bd d2 5e cd bc
       -0.071717076 0.030828357 -0.09956385 -0.025069628
000240 bf a9 a6 3c 6c 14 ed 3c 1b 72 ac bd c4 4b 91 bd
       0.020344613 0.028940402 -0.084202014 -0.07094529
000250 cb 34 42 3c 29 21 42 bd 17 d6 9a 3d 5a ed 05 be
       0.011853407 -0.047394905 0.07560366 -0.13078824
000260 83 84 d0 bc c8 26 57 bd 3c cf 24 3b 22 f2 e8 bc
       -0.025453812 -0.05252722 0.0025147935 -0.02843577
000270 ad 0d 01 be 86 ac a0 bd 61 de d3 3c 45 ce c1 3d
       -0.12602873 -0.07845406 0.025862874 0.09463171
000280 98 44 90 3d 45 f7 ae bd 76 bb b2 3c f5 7b 68 3d
       0.07044333 -0.08543257 0.021817904 0.05675884
000290 80 6c 32 bc b2 51 30 3d e5 9d f3 bd 1b dd af 3c
       -0.010890126 0.04304666 -0.1189535 0.021467736
0002a0 42 25 09 3d 64 ef d6 3d 94 a1 66 bd bd 45 d4 bd
       0.033482797 0.10494879 -0.056306437 -0.10364864
0002b0 66 9a 59 bd d3 c2 72 bd 66 be 08 bd e1 54 77 3d
       -0.05312576 -0.05926783 -0.033384703 0.06038368
0002c0 6b 85 c5 bd 97 59 27 bd 97 10 1b 3d aa ef 02 3e
       -0.09644588 -0.040856924 0.03785762 0.12786737
0002d0 f7 1a 93 bd 44 07 4d 3d e5 ba 04 3d 5b bd 30 3d
       -0.071828775 0.050055757 0.0324048 0.043149333
0002e0 5d eb 37 b9 b6 20 06 be 3b 82 e3 bc b1 f7 0c be
       -0.0001753992 -0.13098416 -0.02777206 -0.13766362
0002f0 51 08 d7 3d 64 2c d8 3c e4 4d c0 bd ca 12 f9 bd
       0.10499633 0.026388355 -0.093898565 -0.12161787
000300 62 a7 f8 bc 09 73 1b bd 4e f5 51 3d 08 98 f7 3c
       -0.030353252 -0.037951503 0.05125933 0.030223861
000310 f3 bf 9a bd c8 6a 3e bd 13 a3 18 bd c8 3f c5 3d
       -0.07556143 -0.046488553 -0.037264895 0.09631306
000320 90 de bb 3d f4 57 db bd 8c cc ee bd c2 77 03 bd
       0.0917331 -0.10710135 -0.11660108 -0.03209663
000330 11 ae 65 3d 5c eb 74 bc cc d8 94 bd cd ba 0d be
       0.056074206 -0.014948692 -0.07267913 -0.1384079
000340 43 2a a6 bd 30 3d 76 bd 64 8f e3 bd e0 62 4e bd
       -0.081135295 -0.060116947 -0.11111334 -0.050387263
000350 35 84 9b bd c6 ce b9 bd 3e 6d 79 bd 75 fb cc bd
       -0.07593576 -0.09072642 -0.060895197 -0.10008899
000360 1f 03 98 bd 89 84 02 be 50 7c 78 bd 91 9b c8 3b
       -0.0742247 -0.1274587 -0.06066543 0.0061220606
000370 67 2e b9 3d 7b bc 76 bd 38 b9 c5 bd 33 d0 20 3d
       0.09042054 -0.060238343 -0.09654468 0.039261054
000380 5b d8 66 3c a2 b9 5c bd 05 ed 6c 3d 95 f6 ef bd
       0.014089669 -0.05388797 0.057843227 -0.11716954
000390 b8 fe 0b 3d f6 74 4d 3b 66 01 03 3e 3d 34 9b bd
       0.034178466 0.0031350232 0.12793502 -0.07578323
0003a0 9a ed 9b bd a8 9d 97 bc 5b 58 74 bb 30 4b 47 3d
       -0.07613678 -0.018507794 -0.003728411 0.04865569
0003b0 21 d6 09 be 1a e6 04 be 3f 9b 60 3c 2b e9 8e 3c
       -0.1346059 -0.12978402 0.013708889 0.017445168
0003c0 91 1f cb 3d 7b 6d 8d 3d 6e ef 9d bc b5 02 88 3d
       0.0991813 0.06905647 -0.019279208 0.06641141
0003d0 59 e0 8b bd 76 9a 05 3e 6a ac 0f bd 7d c3 21 3d
       -0.068299 0.13047203 -0.035076536 0.039493073
0003e0 58 3b c1 3d 50 5d 63 bc fe 52 d3 3d 70 3e e8 bd
       0.09435147 -0.013877228 0.10318564 -0.11340034
0003f0 ef 3f ea bd 2f 97 8b 3d fa 47 f1 3d 60 8c 18 3e
       -0.114379756 0.06815945 0.117813066 0.14897299
